{"modelTopology":{"class_name":"Sequential","config":{"name":"submitModel","layers":[{"class_name":"Dense","config":{"units":128,"activation":"relu","use_bias":true,"kernel_initializer":{"class_name":"VarianceScaling","config":{"scale":1,"mode":"fan_avg","distribution":"normal","seed":null}},"bias_initializer":{"class_name":"Zeros","config":{}},"kernel_regularizer":{"class_name":"L1L2","config":{"l1":0,"l2":0.01}},"bias_regularizer":null,"activity_regularizer":null,"kernel_constraint":null,"bias_constraint":null,"name":"dense_Dense1","trainable":true,"batch_input_shape":[null,51],"dtype":"float32"}},{"class_name":"BatchNormalization","config":{"axis":-1,"momentum":0.99,"epsilon":0.001,"center":true,"scale":true,"beta_initializer":{"class_name":"Zeros","config":{}},"gamma_initializer":{"class_name":"Ones","config":{}},"moving_mean_initializer":{"class_name":"Zeros","config":{}},"moving_variance_initializer":{"class_name":"Ones","config":{}},"beta_regularizer":null,"gamma_regularizer":null,"beta_constraint":null,"gamma_constraint":null,"name":"batch_normalization_BatchNormalization1","trainable":true}},{"class_name":"Dropout","config":{"rate":0.25,"noise_shape":null,"seed":null,"name":"dropout_Dropout1","trainable":true}},{"class_name":"Dense","config":{"units":64,"activation":"relu","use_bias":true,"kernel_initializer":{"class_name":"VarianceScaling","config":{"scale":1,"mode":"fan_avg","distribution":"normal","seed":null}},"bias_initializer":{"class_name":"Zeros","config":{}},"kernel_regularizer":{"class_name":"L1L2","config":{"l1":0,"l2":0.01}},"bias_regularizer":null,"activity_regularizer":null,"kernel_constraint":null,"bias_constraint":null,"name":"dense_Dense2","trainable":true}},{"class_name":"BatchNormalization","config":{"axis":-1,"momentum":0.99,"epsilon":0.001,"center":true,"scale":true,"beta_initializer":{"class_name":"Zeros","config":{}},"gamma_initializer":{"class_name":"Ones","config":{}},"moving_mean_initializer":{"class_name":"Zeros","config":{}},"moving_variance_initializer":{"class_name":"Ones","config":{}},"beta_regularizer":null,"gamma_regularizer":null,"beta_constraint":null,"gamma_constraint":null,"name":"batch_normalization_BatchNormalization2","trainable":true}},{"class_name":"Dropout","config":{"rate":0.2,"noise_shape":null,"seed":null,"name":"dropout_Dropout2","trainable":true}},{"class_name":"Dense","config":{"units":32,"activation":"relu","use_bias":true,"kernel_initializer":{"class_name":"VarianceScaling","config":{"scale":1,"mode":"fan_avg","distribution":"normal","seed":null}},"bias_initializer":{"class_name":"Zeros","config":{}},"kernel_regularizer":{"class_name":"L1L2","config":{"l1":0,"l2":0.01}},"bias_regularizer":null,"activity_regularizer":null,"kernel_constraint":null,"bias_constraint":null,"name":"dense_Dense3","trainable":true}},{"class_name":"BatchNormalization","config":{"axis":-1,"momentum":0.99,"epsilon":0.001,"center":true,"scale":true,"beta_initializer":{"class_name":"Zeros","config":{}},"gamma_initializer":{"class_name":"Ones","config":{}},"moving_mean_initializer":{"class_name":"Zeros","config":{}},"moving_variance_initializer":{"class_name":"Ones","config":{}},"beta_regularizer":null,"gamma_regularizer":null,"beta_constraint":null,"gamma_constraint":null,"name":"batch_normalization_BatchNormalization3","trainable":true}},{"class_name":"Dropout","config":{"rate":0.15,"noise_shape":null,"seed":null,"name":"dropout_Dropout3","trainable":true}},{"class_name":"Dense","config":{"units":2,"activation":"softmax","use_bias":true,"kernel_initializer":{"class_name":"VarianceScaling","config":{"scale":1,"mode":"fan_avg","distribution":"normal","seed":null}},"bias_initializer":{"class_name":"Zeros","config":{}},"kernel_regularizer":null,"bias_regularizer":null,"activity_regularizer":null,"kernel_constraint":null,"bias_constraint":null,"name":"dense_Dense4","trainable":true}}]},"keras_version":"tfjs-layers 4.22.0","backend":"tensor_flow.js"},"format":"layers-model","generatedBy":"TensorFlow.js tfjs-layers v4.22.0","convertedBy":null,"weightData":"…","weightSpecs":[{"name":"dense_Dense1/kernel","shape":[51,128],"dtype":"float32"},{"name":"dense_Dense1/bias","shape":[128],"dtype":"float32"},{"name":"batch_normalization_BatchNormalization1/gamma","shape":[128],"dtype":"float32"},{"name":"batch_normalization_BatchNormalization1/beta","shape":[128],"dtype":"float32"},{"name":"dense_Dense2/kernel","shape":[128,64],"dtype":"float32"},{"name":"dense_Dense2/bias","shape":[64],"dtype":"float32"},{"name":"batch_normalization_BatchNormalization2/gamma","shape":[64],"dtype":"float32"},{"name":"batch_normalization_BatchNormalization2/beta","shape":[64],"dtype":"float32"},{"name":"dense_Dense3/kernel","shape":[64,32],"dtype":"float32"},{"name":"dense_Dense3/bias","shape":[32],"dtype":"float32"},{"name":"batch_normalization_BatchNormalization3/gamma","shape":[32],"dtype":"float32"},{"name":"batch_normalization_BatchNormalization3/beta","shape":[32],"dtype":"float32"},{"name":"dense_Dense4/kernel","shape":[32,2],"dtype":"float32"},{"name":"dense_Dense4/bias","shape":[2],"dtype":"float32"},{"name":"batch_normalization_BatchNormalization1/moving_mean","shape":[128],"dtype":"float32"},{"name":"batch_normalization_BatchNormalization1/moving_variance","shape":[128],"dtype":"float32"},{"name":"batch_normalization_BatchNormalization2/moving_mean","shape":[64],"dtype":"float32"},{"name":"batch_normalization_BatchNormalization2/moving_variance","shape":[64],"dtype":"float32"},{"name":"batch_normalization_BatchNormalization3/moving_mean","shape":[32],"dtype":"float32"},{"name":"batch_normalization_BatchNormalization3/moving_variance","shape":[32],"dtype":"float32"}],"modelArtifactsInfo":{"dateSaved":"2025-07-29T13:13:27.029Z","modelTopologyType":"JSON","version":"0","formType":"submitModel"}}